Model: "sequential"
_________________________________________________________________
Layer (type)                 Output Shape              Param #   
=================================================================
conv1d (Conv1D)              (None, 98, 256)           37888     
_________________________________________________________________
max_pooling1d (MaxPooling1D) (None, 32, 256)           0         
_________________________________________________________________
conv1d_1 (Conv1D)            (None, 30, 256)           196864    
_________________________________________________________________
dense (Dense)                (None, 30, 1024)          263168    
_________________________________________________________________
dropout (Dropout)            (None, 30, 1024)          0         
_________________________________________________________________
dense_1 (Dense)              (None, 30, 512)           524800    
_________________________________________________________________
dropout_1 (Dropout)          (None, 30, 512)           0         
_________________________________________________________________
dense_2 (Dense)              (None, 30, 256)           131328    
_________________________________________________________________
dense_3 (Dense)              (None, 30, 128)           32896     
_________________________________________________________________
flatten (Flatten)            (None, 3840)              0         
_________________________________________________________________
dense_4 (Dense)              (None, 1)                 3841      
=================================================================
Total params: 1,190,785
Trainable params: 1,190,785
Non-trainable params: 0
_________________________________________________________________
Batch size = 8
learn rate = 1e-05
Num epochs = 100

train:
RMSE:3.5453
R:0.8374
p:0.0
R_spear:0.7844
NRMSE:0.1364
CCC:0.7825500045461719


test:
RMSE:5.5411
R:0.4345
p:0.0235
R_spear:0.4339
…
