Model: "sequential"
_________________________________________________________________
Layer (type)                 Output Shape              Param #   
=================================================================
conv1d (Conv1D)              (None, 98, 256)           37888     
_________________________________________________________________
max_pooling1d (MaxPooling1D) (None, 32, 256)           0         
_________________________________________________________________
conv1d_1 (Conv1D)            (None, 30, 256)           196864    
_________________________________________________________________
dense (Dense)                (None, 30, 1024)          263168    
_________________________________________________________________
dropout (Dropout)            (None, 30, 1024)          0         
_________________________________________________________________
dense_1 (Dense)              (None, 30, 512)           524800    
_________________________________________________________________
dropout_1 (Dropout)          (None, 30, 512)           0         
_________________________________________________________________
dense_2 (Dense)              (None, 30, 256)           131328    
_________________________________________________________________
dense_3 (Dense)              (None, 30, 128)           32896     
_________________________________________________________________
flatten (Flatten)            (None, 3840)              0         
_________________________________________________________________
dense_4 (Dense)              (None, 1)                 3841      
=================================================================
Total params: 1,190,785
Trainable params: 1,190,785
Non-trainable params: 0
_________________________________________________________________
Batch size = 32
learn rate = 0.001
Num epochs = 70

train:
RMSE:0.7295
R:0.9606
p:0.0
R_spear:0.9658
NRMSE:0.0912
CCC:0.945820564544341


test:
RMSE:2.2771
R:-0.0194
p:0.9234
R_spear:-0.1388
…
